…
          "base_uri": "https://localhost:8080/"
        },
        "id": "2bzkd9FjYFv9",
        "outputId": "34312218-6d2f-48bb-d5cd-18494393ac4a"
      },
      "execution_count": 6,
      "outputs": [
        {
          "output_type": "stream",
          "name": "stdout",
          "text": [
            "Model: \"sequential\"\n",
            "_________________________________________________________________\n",
            " Layer (type)                Output Shape              Param #   \n",
            "=================================================================\n",
            " dense (Dense)               (None, 16384)             1654784   \n",
            "                                                                 \n",
            " leaky_re_lu (LeakyReLU)     (None, 16384)             0         \n",
            "                                                                 \n",
            " reshape (Reshape)           (None, 8, 8, 256)         0         \n",
            "                                                                 \n",
            " batch_normalization (Batch  (None, 8, 8, 256)         1024      \n",
            " Normalization)                                                  \n",
            "                                                                 \n",
            " conv2d_transpose (Conv2DTr  (None, 16, 16, 128)       524416    \n",
            " anspose)                                                        \n",
            "                                                                 \n",
            " leaky_re_lu_1 (LeakyReLU)   (None, 16, 16, 128)       0         \n",
            "                                                                 \n",
            " batch_normalization_1 (Bat  (None, 16, 16, 128)       512       \n",
            " chNormalization)                                                \n",
            "                                                                 \n",
            " conv2d_transpose_1 (Conv2D  (None, 32, 32, 64)        131136    \n",
            " Transpose)                                                      \n",
            "                                                                 \n",
            " leaky_re_lu_2 (LeakyReLU)   (None, 32, 32, 64)        0         \n",
            "                                                                 \n",
            " batch_normalization_2 (Bat  (None, 32, 32, 64)        256       \n",
            " chNormalization)                                                \n",
            "                                                                 \n",
            " conv2d_transpose_2 (Conv2D  (None, 64, 64, 3)         3075      \n",
            " Transpose)                                                      \n",
            "                                                                 \n",
            "=================================================================\n",
            "Total params: 2315203 (8.83 MB)\n",
            "Trainable params: 2314307 (8.83 MB)\n",
            "Non-trainable params: 896 (3.50 KB)\n",
…
          "base_uri": "https://localhost:8080/"
        },
        "id": "EVqfO3WCYRcF",
        "outputId": "c9d5e501-cada-4597-e552-c60cb0173e78"
      },
      "execution_count": 8,
      "outputs": [
        {
          "output_type": "stream",
          "name": "stdout",
          "text": [
            "Model: \"sequential_1\"\n",
            "_________________________________________________________________\n",
            " Layer (type)                Output Shape              Param #   \n",
            "=================================================================\n",
            " conv2d (Conv2D)             (None, 32, 32, 64)        3136      \n",
            "                                                                 \n",
            " leaky_re_lu_3 (LeakyReLU)   (None, 32, 32, 64)        0         \n",
            "                                                                 \n",
            " conv2d_1 (Conv2D)           (None, 16, 16, 128)       131200    \n",
            "                                                                 \n",
            " leaky_re_lu_4 (LeakyReLU)   (None, 16, 16, 128)       0         \n",
            "                                                                 \n",
            " conv2d_2 (Conv2D)           (None, 8, 8, 256)         524544    \n",
            "                                                                 \n",
            " leaky_re_lu_5 (LeakyReLU)   (None, 8, 8, 256)         0         \n",
            "                                                                 \n",
            " flatten (Flatten)           (None, 16384)             0         \n",
            "                                                                 \n",
            " dense_1 (Dense)             (None, 1)                 16385     \n",
            "                                                                 \n",
            "=================================================================\n",
            "Total params: 675265 (2.58 MB)\n",
            "Trainable params: 675265 (2.58 MB)\n",
            "Non-trainable params: 0 (0.00 Byte)\n",
            "_________________________________________________________________\n"
…
